Number of training examples:  3940
Number of validation examples:  196
HideNet(
  (model): HideNetSkipConnectionBlock(
    (model): Sequential(
      (0): Conv2d(6, 64, kernel_size=(4, 4), stride=(2, 2), padding=(1, 1), bias=False)
      (1): HideNetSkipConnectionBlock(
        (model): Sequential(
          (0): LeakyReLU(negative_slope=0.2, inplace=True)
          (1): Conv2d(64, 128, kernel_size=(4, 4), stride=(2, 2), padding=(1, 1), bias=False)
          (2): BatchNorm2d(128, eps=1e-05, momentum=0.1, affine=True, track_running_stats=True)
          (3): HideNetSkipConnectionBlock(
            (model): Sequential(
              (0): LeakyReLU(negative_slope=0.2, inplace=True)
              (1): Conv2d(128, 256, kernel_size=(4, 4), stride=(2, 2), padding=(1, 1), bias=False)
              (2): BatchNorm2d(256, eps=1e-05, momentum=0.1, affine=True, track_running_stats=True)
              (3): HideNetSkipConnectionBlock(
                (model): Sequential(
                  (0): LeakyReLU(negative_slope=0.2, inplace=True)
                  (1): Conv2d(256, 512, kernel_size=(4, 4), stride=(2, 2), padding=(1, 1), bias=False)
                  (2): BatchNorm2d(512, eps=1e-05, momentum=0.1, affine=True, track_running_stats=True)
                  (3): HideNetSkipConnectionBlock(
                    (model): Sequential(
                      (0): LeakyReLU(negative_slope=0.2, inplace=True)
                      (1): Conv2d(512, 512, kernel_size=(4, 4), stride=(2, 2), padding=(1, 1), bias=False)
                      (2): BatchNorm2d(512, eps=1e-05, momentum=0.1, affine=True, track_running_stats=True)
                      (3): HideNetSkipConnectionBlock(
                        (model): Sequential(
                          (0): LeakyReLU(negative_slope=0.2, inplace=True)
                          (1): Conv2d(512, 512, kernel_size=(4, 4), stride=(2, 2), padding=(1, 1), bias=False)
                          (2): BatchNorm2d(512, eps=1e-05, momentum=0.1, affine=True, track_running_stats=True)
                          (3): HideNetSkipConnectionBlock(
                            (model): Sequential(
                              (0): LeakyReLU(negative_slope=0.2, inplace=True)
                              (1): Conv2d(512, 512, kernel_size=(4, 4), stride=(2, 2), padding=(1, 1), bias=False)
                              (2): ReLU(inplace=True)
                              (3): ConvTranspose2d(512, 512, kernel_size=(4, 4), stride=(2, 2), padding=(1, 1), bias=False)
                              (4): BatchNorm2d(512, eps=1e-05, momentum=0.1, affine=True, track_running_stats=True)
                            )
                          )
                          (4): ReLU(inplace=True)
                          (5): ConvTranspose2d(1024, 512, kernel_size=(4, 4), stride=(2, 2), padding=(1, 1), bias=False)
                          (6): BatchNorm2d(512, eps=1e-05, momentum=0.1, affine=True, track_running_stats=True)
                        )
                      )
                      (4): ReLU(inplace=True)
                      (5): ConvTranspose2d(1024, 512, kernel_size=(4, 4), stride=(2, 2), padding=(1, 1), bias=False)
                      (6): BatchNorm2d(512, eps=1e-05, momentum=0.1, affine=True, track_running_stats=True)
                    )
                  )
                  (4): ReLU(inplace=True)
                  (5): ConvTranspose2d(1024, 256, kernel_size=(4, 4), stride=(2, 2), padding=(1, 1), bias=False)
                  (6): BatchNorm2d(256, eps=1e-05, momentum=0.1, affine=True, track_running_stats=True)
                )
              )
              (4): ReLU(inplace=True)
              (5): ConvTranspose2d(512, 128, kernel_size=(4, 4), stride=(2, 2), padding=(1, 1), bias=False)
              (6): BatchNorm2d(128, eps=1e-05, momentum=0.1, affine=True, track_running_stats=True)
            )
          )
          (4): ReLU(inplace=True)
          (5): ConvTranspose2d(256, 64, kernel_size=(4, 4), stride=(2, 2), padding=(1, 1), bias=False)
          (6): BatchNorm2d(64, eps=1e-05, momentum=0.1, affine=True, track_running_stats=True)
        )
      )
      (2): ReLU(inplace=True)
      (3): ConvTranspose2d(128, 3, kernel_size=(4, 4), stride=(2, 2), padding=(1, 1))
      (4): Sigmoid()
    )
  )
)
Total number of parameters: 41832067
RevealNet(
  (main): Sequential(
    (0): Conv2d(3, 64, kernel_size=(3, 3), stride=(1, 1), padding=(1, 1))
    (1): BatchNorm2d(64, eps=1e-05, momentum=0.1, affine=True, track_running_stats=True)
    (2): ReLU(inplace=True)
    (3): Conv2d(64, 128, kernel_size=(3, 3), stride=(1, 1), padding=(1, 1))
    (4): BatchNorm2d(128, eps=1e-05, momentum=0.1, affine=True, track_running_stats=True)
    (5): ReLU(inplace=True)
    (6): Conv2d(128, 256, kernel_size=(3, 3), stride=(1, 1), padding=(1, 1))
    (7): BatchNorm2d(256, eps=1e-05, momentum=0.1, affine=True, track_running_stats=True)
    (8): ReLU(inplace=True)
    (9): Conv2d(256, 128, kernel_size=(3, 3), stride=(1, 1), padding=(1, 1))
    (10): BatchNorm2d(128, eps=1e-05, momentum=0.1, affine=True, track_running_stats=True)
    (11): ReLU(inplace=True)
    (12): Conv2d(128, 64, kernel_size=(3, 3), stride=(1, 1), padding=(1, 1))
    (13): BatchNorm2d(64, eps=1e-05, momentum=0.1, affine=True, track_running_stats=True)
    (14): ReLU(inplace=True)
    (15): Conv2d(64, 3, kernel_size=(3, 3), stride=(1, 1), padding=(1, 1))
    (16): Sigmoid()
  )
)
Total number of parameters: 742659
----- Training: START -----
[1/3][1/123] hide_loss: 0.0706 reveal_loss: 0.0869 sum_loss: 0.1358
[1/3][2/123] hide_loss: 0.0664 reveal_loss: 0.1038 sum_loss: 0.1443
[1/3][3/123] hide_loss: 0.0633 reveal_loss: 0.0795 sum_loss: 0.1229
[1/3][4/123] hide_loss: 0.0523 reveal_loss: 0.0597 sum_loss: 0.0970
…
